____________________________________________________________________________________________________
Layer (type)                     Output Shape          Param #     Connected to                     
====================================================================================================
convolution2d_1 (Convolution2D)  (None, 32, 32, 96)    2688        convolution2d_input_1[0][0]      
____________________________________________________________________________________________________
activation_1 (Activation)        (None, 32, 32, 96)    0           convolution2d_1[0][0]            
____________________________________________________________________________________________________
convolution2d_2 (Convolution2D)  (None, 32, 32, 96)    83040       activation_1[0][0]               
____________________________________________________________________________________________________
activation_2 (Activation)        (None, 32, 32, 96)    0           convolution2d_2[0][0]            
____________________________________________________________________________________________________
maxpooling2d_1 (MaxPooling2D)    (None, 15, 15, 96)    0           activation_2[0][0]               
____________________________________________________________________________________________________
convolution2d_3 (Convolution2D)  (None, 15, 15, 192)   166080      maxpooling2d_1[0][0]             
____________________________________________________________________________________________________
activation_3 (Activation)        (None, 15, 15, 192)   0           convolution2d_3[0][0]            
____________________________________________________________________________________________________
convolution2d_4 (Convolution2D)  (None, 15, 15, 192)   331968      activation_3[0][0]               
____________________________________________________________________________________________________
activation_4 (Activation)        (None, 15, 15, 192)   0           convolution2d_4[0][0]            
____________________________________________________________________________________________________
maxpooling2d_2 (MaxPooling2D)    (None, 7, 7, 192)     0           activation_4[0][0]               
____________________________________________________________________________________________________
flatten_1 (Flatten)              (None, 9408)          0           maxpooling2d_2[0][0]             
____________________________________________________________________________________________________
dense_1 (Dense)                  (None, 1024)          9634816     flatten_1[0][0]                  
____________________________________________________________________________________________________
dropout_1 (Dropout)              (None, 1024)          0           dense_1[0][0]                    
____________________________________________________________________________________________________
dense_2 (Dense)                  (None, 1024)          1049600     dropout_1[0][0]                  
____________________________________________________________________________________________________
dropout_2 (Dropout)              (None, 1024)          0           dense_2[0][0]                    
____________________________________________________________________________________________________
dense_3 (Dense)                  (None, 10)            10250       dropout_2[0][0]                  
====================================================================================================
Total params: 11278442
____________________________________________________________________________________________________
None
